Model: "model_1"
_________________________________________________________________
 Layer (type)                Output Shape              Param #   
=================================================================
 input_1 (InputLayer)        [(None, 3200, 1, 3)]      0         
                                                                 
 model (Functional)          (None, 256)               1270528   
                                                                 
 batch_normalization_12 (Bat  (None, 256)              1024      
 chNormalization)                                                
                                                                 
 dropout (Dropout)           (None, 256)               0         
                                                                 
 dense (Dense)               (None, 256)               65792     
                                                                 
 batch_normalization_13 (Bat  (None, 256)              1024      
 chNormalization)                                                
                                                                 
 dropout_1 (Dropout)         (None, 256)               0         
                                                                 
 dense_1 (Dense)             (None, 2)                 514       
                                                                 
=================================================================
Total params: 1,338,882
Trainable params: 1,333,570
Non-trainable params: 5,312
_________________________________________________________________
Epoch 1/3
   1/1156 [..............................] - ETA: 2:28:05 - loss: 1.3236 - categorical_accuracy: 0.5350
…
